model/keypoint_classifier/keypoint_classifier.tflite (tflite, 6820 bytes, 6 tensors)

arith.constant f4 [10, 10]
000000 9e fb 17 3f 3b 96 16 3f 27 b6 30 bf 42 d3 f1 be
       0.5936831 0.58822984 -0.6902794 -0.4723149
000010 5d 94 e0 3d b0 01 27 b7 90 3a 3e 3f c2 fc e5 3e
       0.10965798 -9.954369e-06 0.7430811 0.449194
000020 fa 70 51 3e ff 97 63 bf 36 52 d2 be 90 60 40 bf
       0.20453253 -0.889038 -0.41078347 -0.7514734
000030 74 de 3a 3f c3 74 4a bf 90 10 a7 3e ae 30 d7 3e
       0.72995687 -0.79084414 0.32629824 0.42029327
000040 2b 18 bc 3c 6c 80 c8 3e 0b f6 8f 3f 93 01 17 bf
       0.022960743 0.39160478 1.1246961 -0.5898678
000050 64 63 a7 bf 98 5c c5 3e e5 4b bf 3e 1e c3 6d 3e
       -1.3077207 0.38547206 0.3736259 0.23218963
000060 a7 c1 26 c0 a1 8d 95 be 46 50 9e bf fa 32 77 bc
       -2.6055696 -0.29209617 -1.2368248 -0.015087837
000070 83 31 34 bf 7f 91 11 3f 8c a4 19 3f 2a d1 9b bf
       -0.7038805 0.56862634 0.60016704 -1.2173207
000080 34 0c 55 bf 64 f4 04 bf 50 43 f2 bd 12 6a 36 3e
       -0.83221745 -0.5193541 -0.11829245 0.178139
000090 d6 ce 53 3f e3 de c9 3e 1f 13 38 bf b4 0c 06 bf
       0.8273748 0.39427862 -0.71904176 -0.52363133
0000a0 a6 82 b1 3f 44 1a 73 3e 5f 51 07 be c7 5c e3 be
       1.3867996 0.23740488 -0.13214634 -0.4440672
0000b0 51 6b 7f c0 1f dc 8c bf 58 80 7a bf a6 36 bc 3d
       -3.990925 -1.1004676 -0.9785209 0.09190111
0000c0 54 ae 46 bf ac ab 95 3f 48 eb 98 bf e3 7b da be
       -0.77609754 1.1693015 -1.1946802 -0.42672643
0000d0 d1 50 6d 3f dc 4a 01 c0 23 55 08 3e 34 a1 7d bf
       0.9270144 -2.020194 0.13313727 -0.990741
0000e0 ac 1f 2f c0 02 33 ae 3f c4 7e 49 3e 15 af e3 3e
       -2.736308 1.3609316 0.19677263 0.44469514
0000f0 14 8b 24 3f 6f 32 8a 3e 49 e6 06 3f cf c5 97 be
       0.64274716 0.26991603 0.5269514 -0.29643103
000100 28 ab 88 be 09 82 d6 bf 63 38 7f 3e 33 ef b3 bf
       -0.26693082 -1.6758434 0.24923854 -1.4057373
000110 47 99 a7 bf 73 b6 1f 3f 43 56 c3 bf c3 8b dc 3e
       -1.3093652 0.6238777 -1.52607 0.4307538
000120 c4 d0 b0 bd 06 b6 93 3f 7c ea b3 3e 53 0f 74 bf
       -0.08633569 1.1539924 0.35139835 -0.9533588
000130 a2 f5 7e bf 75 dd e0 bf a3 dc 45 3f 15 4d 06 3f
       -0.99593556 -1.7567583 0.7728979 0.5246137
000140 c2 7e e5 bd 71 46 43 3f b7 f4 d1 be 82 4c 8b 3f
       -0.11205818 0.7627936 -0.41007015 1.0882723
000150 c6 2d 13 bf b7 1f 31 3f e8 42 39 bf 92 fd 10 bf
       -0.5749172 0.6918902 -0.72367716 -0.5663692
000160 08 20 9a bf da 0f d3 bf 13 86 31 be ec 0d fc bf
       -1.2041025 -1.6489213 -0.17336302 -1.9691749
000170 4a 02 0a bf 3f 5a 80 3f 6a 4a 3a 3f e1 2a 83 3e
       -0.5390974 1.0027541 0.72769797 0.25618652
000180 a3 bc 72 be 2b 02 a9 3d 82 5c f8 3e b1 cc 9a bf
       -0.23704772 0.08252367 0.48508078 -1.2093717

arith.constant1 f4 [10, 20]
000000 3a 99 45 bd 61 4f ca 3e c4 61 f0 3e 9e e9 d5 3c
       -0.04824183 0.39513686 0.4694959 0.026112374
000010 83 9f 06 be e2 1d 6d bd b3 92 96 be 13 1c 87 3f
       -0.13146786 -0.057889827 -0.29408798 1.0555443
000020 fb b4 7c bf 2c 47 a9 3e 8b 21 00 be 04 46 87 3f
       -0.98713654 0.33062112 -0.12512796 1.0568242
000030 7f 14 d1 bd 69 4a 36 3f 47 ef e2 3f 65 af 49 3e
       -0.102089874 0.7120729 1.7729272 0.19695814
000040 5a 73 83 be a5 cc c5 3f da 97 56 bf 4a b5 87 be
       -0.25673944 1.5453078 -0.8382546 -0.265055
000050 b7 42 4e 3c 29 db b9 bd 9f 8b f0 bc 58 e0 50 3c
       0.012589148 -0.090750046 -0.029363452 0.0127488
000060 f3 af 22 be 04 73 39 40 2e 47 2c be 7d a8 60 3e
       -0.15887432 2.897645 -0.16824028 0.21939273
000070 85 9b 78 bf 40 e6 f0 bd e6 dc d3 3c 0c 95 79 bd
       -0.97112304 -0.11762667 0.025862169 -0.060933158
000080 0a 59 f9 be ee 9f 1b 3e 16 45 3a 3e 65 25 5f 3d
       -0.48700744 0.15197727 0.18190417 0.05447902
000090 90 ba ba 3c 8a c1 8d 3e 3b 5c 52 3c 92 7c 92 3d
       0.022794038 0.2768672 0.012839372 0.07152666
0000a0 d7 53 61 3f 92 9a 8e be 0a 97 40 bf 3f 16 1c 3e
       0.88018554 -0.27852303 -0.7523047 0.15242861
0000b0 c7 13 18 be 1d 42 eb 3e ad b5 d6 bd 4c bc b5 3d
       -0.14851294 0.45948878 -0.10483871 0.088738054
0000c0 7b b8 97 3f 5c d3 92 bd 25 79 d6 be 48 46 f2 3e
       1.1853174 -0.0716922 -0.418893 0.47319245
0000d0 af 75 80 3f 44 62 1e 3e 2c 5d 87 3e 73 43 35 be
       1.0035914 0.15467173 0.26438272 -0.17701511
0000e0 04 32 db 3e 26 72 b0 3d 2a bd ff be 5b f6 98 be
       0.42811596 0.08615522 -0.49949008 -0.29875454
0000f0 65 4e 98 3d 4b 40 2b bd e3 78 f8 3e a0 69 91 3e
       0.074368276 -0.04180936 0.4852973 0.28400898
000100 16 6c 01 c0 97 c5 98 3e 87 e5 39 bd 99 83 10 3f
       -2.022222 0.2983825 -0.04538491 0.564508
000110 a9 e3 6c be 08 48 72 3e f1 1c 17 3f 61 05 3d c0
       -0.2313372 0.2366029 0.59028536 -2.9534533
000120 7b fe 19 3f 80 58 3b c0 ed 5d 25 c0 5e 4f 8f 3e
       0.6015393 -2.9272766 -2.5838578 0.2799024
000130 21 5c 64 3f c7 da e6 bf 4c ef 3a 3f 21 3e 06 3f
       0.8920308 -1.8035516 0.7302139 0.5243855
000140 7b 6a 47 40 9c 07 40 3f fc 47 a9 3e 56 af 62 3f
       3.115874 0.7501161 0.33062732 0.8854879
000150 a9 8d c6 be a0 3b 34 3d 9e c0 13 3f b8 29 0c 3e
       -0.38779953 0.044002175 0.57715786 0.1368779
000160 94 a6 38 40 cd dd d0 3d ba 0d 92 3e c9 ec 85 bb
       2.8851671 0.10198555 0.28526098 -0.004087065
000170 20 a2 08 3d 88 40 81 bc 56 6a 81 bc ab 34 32 3f
       0.03335774 -0.015777841 -0.015797775 0.69611615
000180 7b 54 0b bf a6 08 0e be f7 c2 a8 be 0c 8e 74 3f
       -0.5442578 -0.13870487 -0.32961246 0.95529246
000190 0f b4 6a bf 2d 54 68 3f 7f 6a 6a 3f 1f 33 82 bb
       -0.91681 0.9075344 0.9156875 -0.0039733793
0001a0 e8 50 5e 3f 58 35 7a 3d db a9 60 be 0a 2e 9a 3e
       0.86842203 0.06108603 -0.21939795 0.3011325
0001b0 6b 78 cf 3e dc 91 77 3f e0 6a 00 40 d4 e7 93 be
       0.4052156 0.9670694 2.0065231 -0.28887808
0001c0 81 d7 b8 3f 88 bb f0 3d fd 79 15 3e 46 93 46 3e
       1.4440767 0.11754519 0.14597316 0.19392118
0001d0 c1 04 da 3e 64 5e 58 bd 63 1a 14 3f 6d fd 85 3f
       0.42581752 -0.052824393 0.5785276 1.0467964
0001e0 c5 4d 2a 3e 88 e1 bf 3f fc 39 b8 3f d9 c9 75 3f
       0.16631229 1.4990702 1.4392695 0.9601112
0001f0 c5 6f 3e 3f da b8 e1 3b f6 3b 80 3f bb a8 ed 3e
       0.74389297 0.006888491 1.0018299 0.46417794
000200 70 d3 5b 3e b9 11 8a 3b 7b a1 6b 3f 70 3f 94 3f
       0.21467376 0.0042135385 0.92043275 1.158186
000210 b3 8d 65 bd fc c7 96 3f 65 d4 a4 3f f7 98 6b 3f
       -0.056043338 1.177978 1.2877318 0.9203028
000220 4c 42 b1 3f 28 35 ba 3f 3f 3d 9a 3f 20 81 88 3f
       1.3848357 1.4547472 1.2049941 1.0664406
000230 06 35 9c 3e 2a 71 71 3e f3 41 24 3f 92 27 cf 3d
       0.30509204 0.23578325 0.6416313 0.10114969
000240 72 f8 17 40 7c 17 93 3e a6 58 29 bf 13 23 75 be
       2.374539 0.28728855 -0.6615089 -0.23939161
000250 98 99 aa 3f 67 54 be 3f f5 68 1d 3f b3 0e 45 3f
       1.3328123 1.4869508 0.61488277 0.76975554
000260 5d cb 17 3f b1 45 d3 3e 7e 86 0a bc 83 ba 6d bf
       0.5929468 0.41264108 -0.008454917 -0.9286272
000270 f6 77 d9 be 52 b8 09 3e a2 b9 18 3e 78 a9 1c bf
       -0.42474335 0.13449219 0.14914563 -0.6119609
000280 8c 19 ae 3e 01 60 e7 bc ec eb 91 be c8 cc 0d 3e
       0.34003866 -0.02824402 -0.28500307 0.13847649
000290 15 44 4a be 7d 97 68 bd 25 40 10 3f 75 89 54 3e
       -0.19752534 -0.056785095 0.56347877 0.2075556
0002a0 d5 e9 05 40 27 9d f7 bd 3f e1 3c 3e 1d 75 8c be
       2.092397 -0.12090521 0.184453 -0.274331
0002b0 ff 75 0b 3f 8b d1 be bd 01 1b 50 be da a0 32 bd
       0.5447692 -0.09317311 -0.20322801 -0.04361043
0002c0 78 38 b6 3e cc 0c e2 be af 33 c7 3c 2f 82 43 3d
       0.35589957 -0.44150388 0.024316637 0.047731575
0002d0 af 3d e7 bd 74 a6 7c bf 7c 37 83 bf 99 62 cc 3e
       -0.11291062 -0.9869149 -1.0251307 0.39918974
0002e0 d5 20 37 bf 47 ec ed 3e e8 64 17 3e 1a 0b 75 3e
       -0.7153447 0.46469328 0.14784586 0.23930016
0002f0 a2 69 e1 3e 58 1d 74 be 9f 12 2e bf 1a 9e 03 3f
       0.44025904 -0.23839319 -0.67997164 0.5141312
000300 d1 98 1f 3e f8 2c 60 3f 3c 30 e9 3e e9 d8 f4 bd
       0.15585639 0.87568617 0.45544612 -0.11955435
000310 42 47 64 bd ee 11 9f 3e ec d7 a1 bf f7 2d 6c bf
       -0.05573202 0.31068367 -1.2644019 -0.92257637

arith.constant2 f4 [10]
000000 9e 23 91 bf 23 7f 1e bf 46 de 1b 3f 62 89 29 be
       -1.1338995 -0.61912745 0.6088604 -0.16556314
000010 d6 08 30 3e ba 52 20 3e 3f 15 ff 3e b0 30 35 3d
       0.1719087 0.15656558 0.49820897 0.044235885
000020 a6 15 da 3d b4 bc f8 3d
       0.1064866 0.12145367

sequential_1/dense_1_2/BiasAdd/ReadVariableOp f4 [10]
000000 12 bd d9 be fc 30 3a 3f ca 7f 97 3f 03 72 9f 3f
       -0.42527062 0.72730994 1.1835873 1.2456669
000010 e4 39 92 3d 70 5a fc 3e 16 41 b2 be 39 f3 3a 3f
       0.07139948 0.49287748 -0.34815282 0.7302738
000020 89 17 0a bf fa 36 c2 3f
       -0.5394216 1.5173028

sequential_1/dense_1/BiasAdd/ReadVariableOp f4 [20]
000000 c5 ce 85 bf e4 8b fc be cc 41 10 bf ba d0 67 3d
       -1.0453726 -0.49325478 -0.563504 0.05659554
000010 38 32 83 bf d9 da 1e bf 3c 29 a1 3c 6a 94 cc 3d
       -1.02497 -0.62052685 0.019672982 0.09989245
000020 02 a2 99 bf 10 10 74 bf 00 d1 32 bf cd 2e 6f bf
       -1.2002566 -0.9533701 -0.6985016 -0.9343079
000030 a4 85 95 bf 06 f2 10 bf c1 b4 17 bf 2e 5b 5f be
       -1.1681409 -0.566193 -0.59260184 -0.21812126
000040 48 05 05 bf f8 2a 10 bf cb dd 08 bf 76 7d e7 be
       -0.51961184 -0.56315565 -0.5346343 -0.45212907

sequential_1/dense_1/MatMul f4 [20, 42]
000000 00 98 b9 39 cc 2d ea 3d 13 0c 96 bc ed 25 9b 3d
       0.00035399199 0.11434516 -0.018316304 0.07575593
000010 d4 de c0 bb 79 f3 ed 3c cb 1f 46 3d 98 dd 82 3d
       -0.005885938 0.02904676 0.048370164 0.06389922
000020 85 4f 10 3e a4 74 e2 bf 7b c3 3c 3d 64 28 4c bd
       0.14092834 -1.7691846 0.046084862 -0.049843207
000030 b8 57 04 3c 33 c5 36 3d 0c 49 7d ba 80 8d 7f 3d
       0.008077554 0.044621658 -0.0009662069 0.062390804
000040 a9 76 cc bb 90 3c 12 3d 39 a1 aa 3d 58 25 46 bd
       -0.0062397313 0.03570229 0.08331532 -0.048375458
000050 2e ea c8 bc a7 ef 1b 3c 79 d1 4a 3c d9 8a ed 3a
       -0.024525728 0.009517587 0.012379044 0.0018123045
000060 d2 b5 8e 3d 2f 36 93 bc d7 e3 74 3d c3 ae d8 bc
       0.06968273 -0.017970173 0.059787598 -0.02645052
000070 30 4a 47 bd b6 af 0f 3d af 1c 6c bd 28 7f 9b 3d
       -0.048654735 0.03507968 -0.057644542 0.075926125
000080 ae d7 19 bd be a1 f3 3d 80 39 28 3d ba 46 17 3c
       -0.037559204 0.11896084 0.04107046 0.009233171
000090 6d 81 8f bd 43 14 47 3d 4b d2 b2 bd 6c 53 6d 3d
       -0.07007108 0.048603307 -0.087315165 0.057940885
0000a0 e2 0c 1d bd 42 36 36 3b c7 56 15 be 9c 88 ad bd
       -0.038342364 0.0027803336 -0.14583884 -0.08473322
0000b0 12 b5 10 3f 50 3f 17 3e 3e 5d 55 3e c5 45 04 3e
       0.5652629 0.14770246 0.2083635 0.1291724
0000c0 34 9d 05 3e 50 03 e9 3d ae 3b 86 3d 29 1e c7 3d
       0.1304825 0.11377585 0.06554352 0.097225495
0000d0 25 4c 9e bc 04 9f 99 b7 f8 e2 12 3d 44 b2 7f 3d
       -0.019323418 -1.8313069e-05 0.035860986 0.062425867
0000e0 02 75 96 3d fa 10 de 3d 37 f7 b6 3d 32 4e a8 3d
       0.07346536 0.10843082 0.08933871 0.082180396
0000f0 09 a1 e9 bc ed 14 97 bd ac f4 07 3d d7 d5 d8 bd
       -0.02851917 -0.07377038 0.03319232 -0.10587662
000100 44 0e df 3c 51 7f 62 bc d7 2d 77 bd 07 34 ce 3d
       0.027228482 -0.0138243 -0.06034645 0.10068517
000110 aa 32 2d 3d 10 52 3b be 3f 73 7d 3b 7f 7c 6c be
       0.042284645 -0.18293023 0.0038673428 -0.23094366
000120 6f 12 93 be 1f eb 8f be c3 2b a4 bf 86 a9 07 3f
       -0.28725 -0.2810907 -1.2825855 0.5299305
000130 e3 ff ce 3d 32 98 5b be 9f dd 76 3d a8 19 92 be
       0.101074 -0.21444777 0.060269948 -0.285352
000140 c3 9e 09 be 1b e5 3a be 7e c2 7e be 4c 2d d3 3f
       -0.13439469 -0.1825146 -0.2487888 1.6498199
000150 48 45 3a 3d 40 4a 82 3c e3 54 02 be 62 70 9a 3e
       0.045476228 0.015904546 -0.12727694 0.30163866
000160 63 18 da bd 49 a3 1f 3e 87 28 07 be ba 88 64 3d
       -0.10649183 0.15589632 -0.13199054 0.055794455
000170 76 1e f1 bd eb 57 04 3d 88 ff 18 3e 6f 3e 88 3d
       -0.11773388 0.032310408 0.14941227 0.06652533
000180 e2 df 76 bc 13 9e a3 3d 0a 69 aa bd 3c 49 b7 3d
       -0.015068026 0.07989135 -0.08320816 0.08949515
000190 c0 df bb bd 20 54 a1 3d 02 f5 98 3d e5 e7 b7 3c
       -0.09173536 0.07877374 0.074686065 0.022449443
0001a0 b1 27 34 bd 92 d1 6d 3d 4d 9f 95 bd a8 09 58 3d
       -0.043983165 0.05806119 -0.07305775 0.052743584
0001b0 c9 82 b4 bd f4 f2 64 3d 0a 40 a5 bd 27 43 8a bb
       -0.08814008 0.05589576 -0.08068855 -0.004219431
0001c0 2f a9 80 bd e6 f8 1f 3c bc d3 ab 3e 1e 74 f3 be
       -0.06282269 0.009763932 0.33559978 -0.47549528
0001d0 c4 c9 84 3f 2f 71 40 bf 62 b4 76 be 7e 8b fe 3c
       1.0374074 -0.75172704 -0.24092248 0.031072374
0001e0 6b 21 1c be df 6d 08 3e d3 29 fa 3c 81 f7 43 3e
       -0.15247123 0.13323162 0.030537521 0.19137384
0001f0 1d eb 73 3f 6a 11 9c be dc 91 4b 3e e8 e2 42 3e
       0.9528063 -0.30482036 0.1987986 0.1903187
000200 fa c5 b0 3e fa 04 83 be 80 f5 12 3f 8b 6f a4 be
       0.34526044 -0.25589734 0.57405853 -0.3211635
000210 1b ae 26 3f 3a 67 e1 be b2 00 33 3f e2 06 80 be
       0.65109414 -0.44024068 0.69922936 -0.2500525
000220 bf 74 83 3e 9c da 6d bd 31 51 58 bd 80 6c 23 bd
       0.25675008 -0.05806981 -0.052811805 -0.039898396
000230 d3 71 8f bd 98 76 06 3b 64 02 74 bc 64 4b 71 bc
       -0.07004132 0.0020517465 -0.014893148 -0.014727447
000240 35 35 16 3e 43 1e da 3a 80 fc 15 be 52 f5 6e 3d
       0.14668734 0.0016641099 -0.14647102 0.058339424
000250 06 28 9f be eb fa 27 3c 99 e0 a7 be 22 dc c1 3d
       -0.31085223 0.010252695 -0.32788542 0.09465815
000260 9e 21 c0 3d 5e 64 30 3e c1 34 2a be 32 52 a9 3e
       0.09381412 0.17225787 -0.16621687 0.33070523
000270 97 24 71 be 6e f5 c4 3e db c8 ec bd 12 81 14 3f
       -0.23549114 0.38468498 -0.11561748 0.58009446
000280 f8 6f aa 3d c5 69 44 3f 41 ef 2a be 84 18 3e 3f
       0.083221376 0.7672389 -0.1669283 0.7425616
000290 d9 6f 6f be eb 65 73 3f c3 2e 31 be e8 86 9d 3f
       -0.2338251 0.9507739 -0.17302994 1.2306795
0002a0 a4 2e e8 3d 54 85 7e 3e 1c bd d4 3d 6b c9 06 bf
       0.11337021 0.24855548 0.10387632 -0.5265109
0002b0 e1 e2 aa bc 90 10 88 be 7d df 97 bd 72 fb da bc
       -0.020860137 -0.26575136 -0.07415674 -0.026731227
0002c0 e2 8c b0 bd 12 6d 61 bd cc 25 e3 bb cf 90 ad bd
       -0.08620621 -0.05503566 -0.006931996 -0.08474886
0002d0 ca c7 81 3d 86 d0 2a bd f6 c1 39 3d e0 d4 1a 3c
       0.06336935 -0.04170277 0.04535099 0.009450167
0002e0 0a 60 2d 3d dc 0e 9f bb fa 54 23 bd 5e bc 24 bd
       0.042327918 -0.0048540663 -0.03987596 -0.040218703
0002f0 b2 33 53 3c ca cf 77 bd 8f 4a 30 3b 30 3e 30 3d
       0.012890743 -0.060500897 0.002689991 0.043028057
000300 21 35 37 bb e2 d3 34 3d cf cd 88 bc 49 40 85 3c
       -0.0027955251 0.04414738 -0.0166997 0.016266005
000310 e8 d8 ec 3b df 05 94 bd 82 29 04 bd 18 4d 73 bd
       0.0072280057 -0.07227682 -0.032266147 -0.059399694
000320 6b 31 05 be 6e e5 d9 bf 13 ae be bc bd 7e a3 3d
       -0.13007133 -1.7023141 -0.023276364 0.07983158
000330 c4 8e f8 bb 91 ae 4c ba 37 4d 8a bc b9 fc 95 3d
       -0.0075853784 -0.0007807995 -0.016882522 0.07323594
000340 e9 84 d7 3c c3 bc 48 3e 15 66 9b be 60 89 5c be
       0.026308494 0.19603257 -0.3035132 -0.2153678
000350 f4 b7 ca 3d e1 cf 48 3f 55 8f 90 3d 5b 46 ae 3e
       0.098983675 0.784422 0.070585884 0.34038052
000360 d9 96 9c 3d 96 47 17 3e ab 95 57 3d 56 fd 14 3e
       0.076459594 0.14773402 0.05263297 0.14549765
000370 bf 8c 35 bd da e0 cc 3d 20 99 57 bd d1 0a c1 3d
       -0.04432368 0.100038245 -0.052636266 0.09425891
000380 01 cd ed bd 1f f3 52 3d d1 4a 4a be 5f e0 ca bf
       -0.11611367 0.05150139 -0.19755103 -1.5849723
000390 0e ae 0f bd f8 bd ea 3c 64 38 0d 3d df c5 e6 3d
       -0.0350781 0.028655037 0.034477606 0.1126821
0003a0 c4 30 b1 3d 10 2c 95 3d 92 1a 65 3d d5 b0 61 3d
       0.086518794 0.07283795 0.055933543 0.05510028
0003b0 6a c6 19 bd 71 1f 0e bc 1c be 95 3c db 8e 9f 3d
       -0.037542738 -0.008674488 0.018279128 0.077909194
0003c0 79 3b 28 3d 3b 10 f9 3c d1 ef 48 3d e1 73 02 bd
       0.041072343 0.030403247 0.04905683 -0.031848792
0003d0 21 64 be bb f3 90 a7 bd 52 c9 0c bc 28 30 2d 3d
       -0.005810276 -0.08181944 -0.00859292 0.042282254
0003e0 f7 94 c0 bc 29 73 81 bb e2 21 51 bd a3 5c 22 bd
       -0.023508532 -0.0039504957 -0.051057704 -0.039639127
0003f0 6b 08 99 be 74 58 bd 3d a2 b1 db be 2e 0f e5 be
       -0.29889235 0.09245387 -0.4290896 -0.44738144
